{"format": "torch", "nodes": [{"name": "EBs.0", "id": 140420568942096, "class_name": "EB(\n  (phi_e): Sequential(\n    (0): Linear(in_features=2, out_features=32, bias=True)\n    (1): LayerNorm((32,), eps=1e-05, elementwise_affine=False)\n    (2): SiLU()\n    (3): Linear(in_features=32, out_features=32, bias=True)\n    (4): LayerNorm((32,), eps=1e-05, elementwise_affine=False)\n    (5): SiLU()\n    (6): Linear(in_features=32, out_features=32, bias=True)\n  )\n  (phi_x): Sequential(\n    (0): Linear(in_features=32, out_features=32, bias=True)\n    (1): LayerNorm((32,), eps=1e-05, elementwise_affine=False)\n    (2): SiLU()\n    (3): Linear(in_features=32, out_features=32, bias=True)\n    (4): LayerNorm((32,), eps=1e-05, elementwise_affine=False)\n    (5): SiLU()\n    (6): Linear(in_features=32, out_features=32, bias=True)\n    (7): LayerNorm((32,), eps=1e-05, elementwise_affine=False)\n    (8): SiLU()\n    (9): Linear(in_features=32, out_features=1, bias=True)\n  )\n  (phi_m): Sequential(\n    (0): Linear(in_features=32, out_features=32, bias=True)\n    (1): LayerNorm((32,), eps=1e-05, elementwise_affine=False)\n    (2): SiLU()\n    (3): Linear(in_features=32, out_features=32, bias=True)\n    (4): LayerNorm((32,), eps=1e-05, elementwise_affine=False)\n    (5): SiLU()\n    (6): Linear(in_features=32, out_features=32, bias=True)\n    (7): LayerNorm((32,), eps=1e-05, elementwise_affine=False)\n    (8): Sigmoid()\n  )\n  (phi_s): Sequential(\n    (0): Linear(in_features=32, out_features=32, bias=True)\n    (1): LayerNorm((32,), eps=1e-05, elementwise_affine=False)\n    (2): SiLU()\n    (3): Linear(in_features=32, out_features=32, bias=True)\n    (4): LayerNorm((32,), eps=1e-05, elementwise_affine=False)\n    (5): SiLU()\n    (6): Linear(in_features=32, out_features=32, bias=True)\n  )\n)", "parameters": [["phi_e.0.weight", [32, 2]], ["phi_e.0.bias", [32]], ["phi_e.3.weight", [32, 32]], ["phi_e.3.bias", [32]], ["phi_e.6.weight", [32, 32]], ["phi_e.6.bias", [32]], ["phi_x.0.weight", [32, 32]], ["phi_x.0.bias", [32]], ["phi_x.3.weight", [32, 32]], ["phi_x.3.bias", [32]], ["phi_x.6.weight", [32, 32]], ["phi_x.6.bias", [32]], ["phi_x.
…
t", [32, 32]], ["phi_m.0.bias", [32]], ["phi_m.3.weight", [32, 32]], ["phi_m.3.bias", [32]], ["phi_m.6.weight", [32, 32]], ["phi_m.6.bias", [32]], ["phi_s.0.weight", [32, 32]], ["phi_s.0.bias", [32]], ["phi_s.3.weight", [32, 32]], ["phi_s.3.bias", [32]], ["phi_s.6.weight", [32, 32]], ["phi_s.6.bias", [32]]], "output_shape": [[1373, 3], [9968, 32], [9968, 32]], "num_parameters": [64, 32, 1024, 32, 1024, 32, 1024, 32, 1024, 32, 1024, 32, 32, 1, 1024, 32, 1024, 32, 1024, 32, 1024, 32, 1024, 32, 1024, 32]}, {"name": "EBs.1", "id": 140425844250800, "class_name": "EB(\n  (phi_e): Sequential(\n    (0): Linear(in_features=98, out_features=32, bias=True)\n    (1): LayerNorm((32,), eps=1e-05, elementwise_affine=False)\n    (2): SiLU()\n    (3): Linear(in_features=32, out_features=32, bias=True)\n    (4): LayerNorm((32,), eps=1e-05, elementwise_affine=False)\n    (5): SiLU()\n    (6): Linear(in_features=32, out_features=32, bias=True)\n  )\n  (phi_x): Sequential(\n    (0): Linear(in_features=32, out_features=32, bias=True)\n    (1): LayerNorm((32,), eps=1e-05, elementwise_affine=False)\n    (2): SiLU()\n    (3): Linear(in_features=32, out_features=32, bias=True)\n    (4): LayerNorm((32,), eps=1e-05, elementwise_affine=False)\n    (5): SiLU()\n    (6): Linear(in_features=32, out_features=32, bias=True)\n    (7): LayerNorm((32,), eps=1e-05, elementwise_affine=False)\n    (8): SiLU()\n    (9): Linear(in_features=32, out_features=1, bias=True)\n  )\n  (phi_m): Sequential(\n    (0): Linear(in_features=32, out_features=32, bias=True)\n    (1): LayerNorm((32,), eps=1e-05, elementwise_affine=False)\n    (2): SiLU()\n    (3): Linear(in_features=32, out_features=32, bias=True)\n    (4): LayerNorm((32,), eps=1e-05, elementwise_affine=False)\n    (5): SiLU()\n    (6): Linear(in_features=32, out_features=32, bias=True)\n    (7): LayerNorm((32,), eps=1e-05, elementwise_affine=False)\n    (8): Sigmoid()\n  )\n  (phi_s): Sequential(\n    (0): Linear(in_features=64, out_features=32, bias=True)\n    (1): LayerNorm((32,), eps=1e-05, elementwise_affine=False)\n    (2): SiLU()\n    (3): Linear(in_features=32, out_features=32, bias=True)\n    (4): LayerNorm((32,), eps=1e-05, elementwise_affine=False)\n    (5): SiLU()\n    (6): Linear(in_features=32, out_features=32, bias=True)\n  )\n)", "parameters": [["phi_e.0.weight", [32, 98]], ["phi_e.0.bias", [32]], ["phi_e.3.weight", [32, 32]], ["phi_e.3.bias", [32]], ["phi_e.6.weight", [32, 32]], ["phi_e.6.bias", [32]], ["phi_x.0.weight", [32, 32]], ["phi_x.0.bias", [32]], ["phi_x.3.weight", [32, 32]], ["phi_x.3.bias", [32]], ["phi_x.6.weight", [32, 32]], ["phi_x.6.bias", [32]], ["phi_x
…
